lstm_model.pth (torch, 847970 bytes, 9 tensors)

lstm.weight_ih_l0 f4 [512, 24]
000000 f0 28 16 3e 58 8a 4f bb f0 33 5b 3c 4a 45 82 bd
       0.14664054 -0.0031668153 0.013379082 -0.06360872
000010 d3 6a 72 3d 1e 41 f2 3d 6b ea 28 3e 3d 1c 03 bd
       0.059183907 0.11828826 0.16495673 -0.032009352
000020 50 3f 25 3e cb bf 2b 3d 6b fc a1 3d f3 38 64 bc
       0.16137433 0.041930955 0.07909473 -0.013929593
000030 f8 8b f8 3c 83 15 8d 3d 13 64 15 3d 19 73 1e 3e
       0.03034018 0.06888869 0.03647239 0.15473594
000040 b3 08 a6 bd cc b4 ba 3c 5a 22 08 3d c0 d2 ca 3d
       -0.08107128 0.022791289 0.033235885 0.099034786
000050 0e c0 24 3d de 7b 73 3d 58 81 a0 3d 40 f4 c6 3d
       0.04022222 0.0594443 0.0783717 0.09714556
000060 59 76 83 bd af 18 b2 3d f8 0d 92 3c cb 3f a2 bd
       -0.064190574 0.08696114 0.017828926 -0.07922324
000070 2a f6 1a 3d 62 16 84 bd eb ea 27 3c 0e cd 1d bd
       0.037832417 -0.06449582 0.01024888 -0.038525634
000080 26 69 94 3c b6 5a 95 3c 8c 55 c8 3d d5 a6 9b be
       0.018116545 0.01823173 0.09781942 -0.3040072
000090 7b 21 28 bd e9 f5 3e be 5b fe 45 3d f1 e3 25 3e
       -0.041047554 -0.18648495 0.048338275 0.16200234
0000a0 95 11 96 be 60 2e 81 bd 85 de 83 3d 0f 1b 23 be
       -0.2931029 -0.063076735 0.064389266 -0.15928291
0000b0 a4 ab c7 3c 1e 26 28 bd a2 77 21 3c 26 81 1b 3d
       0.024373837 -0.041051976 0.009855183 0.037964962
0000c0 f9 54 46 3a 7a cb 03 3d 00 20 7c 3c 20 b7 aa bd
       0.00075657625 0.032176472 0.015388489 -0.083357096
0000d0 0d 3c 0c 3e e8 82 3c 3d 75 2c 14 3e 20 a8 13 bc
       0.13694783 0.04602328 0.14470084 -0.009012252
0000e0 c5 79 8b 3d f4 26 45 be 60 22 96 3e 59 cb 45 be
       0.06810335 -0.1925314 0.293231 -0.19315852
0000f0 ad a0 5b bd 54 ed e7 3d 27 a0 21 be a6 2d a1 3e
       -0.05362003 0.113245636 -0.1578375 0.3148014
000100 62 f2 c7 bd 83 10 ec 3d dd 92 29 bd 43 9e 14 3e
       -0.09763028 0.11526587 -0.041399825 0.14513497
000110 b9 ce 88 bd 92 d2 a8 bd ae f2 12 be 7a 10 ee bc
       -0.06680054 -0.08243288 -0.14350387 -0.029060591
000120 b3 de 0a 3c 6b 42 c0 bc f8 ed b2 bd 82 25 39 3d
       0.008475947 -0.02346917 -0.08736795 0.045201786
000130 f2 c3 9c bc 80 a1 81 ba 13 50 54 3c ad ad 8a 3d
       -0.019136403 -0.000989005 0.012958544 0.06771407
000140 41 95 86 bb df 2d 98 3b b6 54 e6 3c 64 0a 94 3e
       -0.004107148 0.00464414 0.028116565 0.28914177
000150 86 f5 29 3d a1 fb 46 3d 5a e5 b9 3c 62 19 e7 bc
       0.041493915 0.048579816 0.022692371 -0.028210346
000160 f6 db 4e 3e d2 ed 86 3d 67 bb 07 bd c2 6c 6a 3d
       0.20201096 0.065883294 -0.033137705 0.057232626
000170 d0 01 20 bc 20 70 74 bc bb 11 f8 bc ec 85 c1 bd
       -0.009766057 -0.014919311 -0.030281892 -0.09449372
000180 af e6 fc 3c 8c 33 df bd 5c 6d 24 bd 50 b5 95 3c
       0.030871717 -0.10898504 -0.040143356 0.018274933
000190 ae f4 a9 3c 85 59 08 bc f6 bc f2 3d 42 a5 4f bd
       0.020746555 -0.008322124 0.11852448 -0.05069471
0001a0 5a 42 51 3d 77 5b a7 3d 1c 18 f0 3d e5 88 8c 3b
       0.05108867 0.081717424 0.117233485 0.00428878
0001b0 2e 62 28 bd e6 ea 88 3a e4 18 82 bb 74 3a 0d 3e
       -0.041109256 0.0010445982 -0.0039702523 0.1379183
0001c0 ea b2 5b 3c 07 e0 cb 3d bc 57 aa 3c 5c b6 68 bd
       0.013409356 0.09954839 0.020793788 -0.056814536
0001d0 d8 7c 20 3c 14 d8 80 bc af 56 cb 3d f7 e9 b7 3d
       0.00979539 -0.015728034 0.09928643 0.08980172
0001e0 a5 f5 53 3d d0 65 56 bb 02 24 32 3d e3 d6 45 bd
       0.051747937 -0.0032714494 0.04349137 -0.048300635
0001f0 2f a2 a8 3c 1b 21 54 3e a3 47 a3 3c 4e 9b 46 3d
       0.020585148 0.20715754 0.01993162 0.048487954
000200 4c 8f 62 3d a5 38 8e bc 5a 3b 30 3e 50 c3 9d 3e
       0.05531244 -0.017360995 0.17210141 0.30813074
000210 7a 10 9a bd a7 b1 01 3e 38 b3 50 3c 2f 5f a7 3d
       -0.07522674 0.12665425 0.012738042 0.08172452
000220 e0 c6 82 3e 6d 5e 9b 3d 36 e1 5a 3d 46 fb 70 3d
       0.25542355 0.0758637 0.053437434 0.058833383
000230 a0 20 82 3c 21 4b 94 3d d2 ce 1d 3d 81 65 57 3d
       0.015884697 0.07240892 0.038527317 0.052587036
000240 de a9 72 3d 20 4b 18 3e ea 97 1f 3d 1c df ec 3c
       0.05924403 0.14872408 0.038963236 0.02891498
000250 6b a8 d7 bd 01 77 80 3d f7 1e bb 3d 1b 49 91 3d
       -0.1053017 0.06272698 0.091367655 0.07094022
000260 8b 77 92 ba 73 4c 60 3d ac 13 aa bb a2 26 6c 3e
       -0.0011174543 0.054760408 -0.0051903334 0.23061612
000270 be 29 39 bd 50 df 65 bc 77 01 39 3c b1 a6 ea 3c
       -0.045205824 -0.014030293 0.011291853 0.028643938
000280 13 c3 c0 3d f5 7b 99 3d 0f a5 b4 3d 40 d8 8c 3d
       0.094122075 0.07494346 0.08820545 0.06877184
000290 9c 0c 08 bd 96 e0 70 3d d9 57 a7 bd 85 04 e6 bc
       -0.03321515 0.05880793 -0.081710525 -0.028078327
0002a0 c4 dd dc bd 52 f7 09 3e 40 d5 48 3c 55 10 b0 bd
       -0.10784486 0.13473251 0.012257874 -0.08596865
0002b0 92 dd 7c bd 24 ba 0e 3c dd d2 5b 3d 6f 1e 95 3d
       -0.061734743 0.008711372 0.05366789 0.07281195
0002c0 1c 36 ea 3d da 09 4e 3d ca 9e 0f 3e 87 bb 29 3e
       0.11436102 0.050302364 0.14025417 0.16575442
0002d0 40 34 e8 3a 3a bb 4c bd a7 03 99 3d 37 de 94 3d
       0.0017715767 -0.04998324 0.074714 0.072689466
0002e0 00 61 12 3e 44 69 6b bb b0 42 8e bd d8 03 22 3c
       0.14294815 -0.0035920897 -0.069463134 0.009888612
0002f0 ce 2e 72 3d 74 9f 0a 3d fa 40 84 bd 32 f6 fc bc
       0.059126668 0.033843473 -0.06457706 -0.030879114
000300 e5 4a 5f 3e ed 8a 1e 3e a0 b3 ba bc a2 6a a0 bd
       0.21805914 0.15482683 -0.02279073 -0.078328386
000310 13 ed 2a 3e f0 e7 75 3d 81 96 14 3e d2 0d 35 3d
       0.16691999 0.060035646 0.14510538 0.044202633
000320 0f 93 0d 3d 79 69 80 3d ae bb 2f 3e 32 1f 67 be
       0.034564074 0.06270117 0.17161438 -0.22570494
000330 05 7f 99 3d bd b2 ba 3d 23 8c 49 3e 4e db b8 3d
       0.0749493 0.09116123 0.19682364 0.09026204
000340 0b 50 79 be ba b2 38 3e 94 95 8d bd 1f c7 b7 3d
       -0.2434694 0.18036929 -0.069132954 0.08973526
000350 46 4e 60 bd f0 28 76 bd c5 1a c2 3d 0f d3 47 3e
       -0.054762147 -0.060097635 0.09477762 0.19514106
000360 82 e1 1f 3e 0e 56 9d 3d e0 8b 8a 3c a2 df 33 3d
       0.15613368 0.07682429 0.0169124 0.043914445
000370 39 55 5e 3d e8 f1 24 3e f6 a9 81 3d 60 46 84 bc
       0.054280493 0.16107905 0.063312456 -0.016146839
000380 e7 d7 0b 3e f6 25 43 3e e9 b3 28 3e a7 e9 7a 3e
       0.13656579 0.1905745 0.1647488 0.24503194
000390 90 2a a4 3c 86 54 68 3e d6 cf 28 bc 86 61 36 3e
       0.020039827 0.22688493 -0.010303458 0.1781064
0003a0 2a b9 11 3e 5e 3f 1c 3e 4b e0 3e bd 77 9f 08 3e
       0.1423079 0.15258548 -0.04660062 0.13342081
0003b0 f5 1d ac 3d 93 04 a4 bd 41 3c ed 3d 4f 9e bc 3d
       0.08404151 -0.08008685 0.11583758 0.092098825
0003c0 01 bd 47 bd 99 19 61 3e a3 4d b2 3d aa 22 2e bd
       -0.048764233 0.21982421 0.08706214 -0.042513527
0003d0 0d 56 43 be 8e 78 f4 3b 2b 74 dd 3c 23 03 99 3d
       -0.19075795 0.0074606603 0.027032932 0.074713014
0003e0 f7 7b 1e bd 5b 4f 93 bd 4a bb 40 bd a0 e7 03 3e
       -0.03869244 -0.0719287 -0.047053613 0.12881327
0003f0 30 1f da bb d1 d7 84 3c 10 85 94 bc 28 80 34 bd
       -0.00665655 0.01621619 -0.018129855 -0.04406753

lstm.weight_hh_l0 f4 [512, 128]
000000 2b 7b f4 bb 87 9e 40 bd 59 da 4c 3d 5d bf 02 3d
       -0.007460972 -0.047026183 0.05001292 0.03192078
000010 c0 aa 47 bd 79 93 f1 bc 6d a6 cb bd 77 27 15 3e
       -0.048746824 -0.029489266 -0.099438526 0.14565836
000020 84 e1 2a bc be 52 7d 3d 0d b1 f9 3c f7 70 05 3d
       -0.010429744 0.061846487 0.030479932 0.032578435
000030 85 45 f7 3c 42 58 d7 bc 19 a0 f4 bc 2a 33 71 3d
       0.030184517 -0.026287202 -0.029861497 0.058886684
000040 2e fa b9 bc 77 de be bd 13 6d 46 3b 0e 86 5e 3d
       -0.022702303 -0.093197756 0.0030277416 0.054327063
000050 11 bc 86 bb 5d f8 e3 3d ec 61 fa 3c e0 ab a5 3d
       -0.0041117747 0.11131356 0.03056427 0.08089423
000060 26 b5 05 be 9d 9f 8e 3d 55 c7 4a bd 3e f5 03 3d
       -0.13057384 0.069640376 -0.049506504 0.032216303
000070 cd 2e 22 3c c1 4e d9 bc 80 17 01 3d 90 6f 82 bd
       0.0098988535 -0.02652681 0.031516552 -0.06368935
000080 80 1c 49 bd af 85 af bc bc fa 15 3c 3c b7 1b bd
       -0.049099445 -0.02142605 0.009154018 -0.038016543
000090 38 fc 11 3e 30 1a de bd 70 2c 42 bd 7c 67 c6 bc
       0.1425637 -0.108448386 -0.04740566 -0.024219267
0000a0 76 1d 65 bc e8 0d a5 bd f9 93 aa 3c e0 ac ca bd
       -0.013984075 -0.08059293 0.020822512 -0.098962545
0000b0 7a ab f5 bb 2d 34 3f bd 58 5b c0 bc e9 91 28 3d
       -0.0074972482 -0.046680618 -0.023481056 0.041154776
0000c0 b4 6e e7 bb 9f 88 c7 3d 91 8d 45 bd c7 ed 59 bd
       -0.0070627574 0.09742855 -0.04823071 -0.053205278
0000d0 5d ef ee 3d 98 c3 d7 3d 63 76 0a bd e3 dc 96 bd
       0.11666749 0.105353534 -0.03380431 -0.073663495
0000e0 62 48 93 bb a1 fa cb 3a 5e 58 0f 3e 68 0b 8a 3d
       -0.0044947127 0.0015562364 0.13998553 0.06740457
0000f0 57 e8 10 be e9 c8 b4 3c 18 e2 58 bd 2c d8 f0 bd
       -0.1415113 0.022068458 -0.052949995 -0.117599815
000100 32 43 73 bd 58 1e 20 3c 2e 3e 09 3c b0 be 80 3c
       -0.059390254 0.0097728595 0.008376641 0.015715927
000110 39 23 2e 3e c0 c8 59 3d a5 b2 b6 bd fc 28 21 3d
       0.17005624 0.053169966 -0.089207925 0.039345726
000120 8e 0a 63 3d 0e 4d 93 3c 9f 6d 85 3d c4 b3 ce bd
       0.055429988 0.017981078 0.06515049 -0.10092881
000130 02 ae 62 3d 17 8d aa bd 44 ea 01 be 8f ba 81 3c
       0.055341728 -0.08327692 -0.12687021 0.015836028
000140 d0 b6 94 3c e2 b5 e1 3c 3c 9e e6 bb af a9 da 3d
       0.018153578 0.027552549 -0.007037906 0.10676896
000150 6c a5 31 be e0 ac 1a be 4a c2 33 bc 4e 67 9b bc
       -0.1734826 -0.15105009 -0.010971615 -0.018970158
000160 0a 3f 08 3c 63 9b 8f bd 9f 06 9f bd 73 38 02 bd
       0.008315811 -0.070120595 -0.07764935 -0.031792115
000170 a9 a8 a2 3d 93 53 d6 bd ac 8a a1 3d d5 b5 d9 bd
       0.079423256 -0.10465159 0.07887778 -0.10630385
000180 46 9f f9 bc 98 54 03 be 6c a5 e4 bd 98 9c 0a 3d
       -0.030471455 -0.12825239 -0.11164364 0.033840746
000190 37 eb 91 bd d7 22 17 3d 5c 8e 3d 3c b6 c2 8a bd
       -0.07124942 0.03689846 0.011569586 -0.067754194
0001a0 31 e9 a5 3b 80 e4 a0 3d b1 0c 32 3c 96 da 08 bd
       0.005063199 0.07856083 0.010867284 -0.033411585
0001b0 3d 67 75 3d c2 5c 0a be b9 3f 7c bd d3 1a d4 3c
       0.05991291 -0.13511947 -0.06158421 0.025891697
0001c0 87 67 8e 3c a2 69 62 bd 85 84 95 3d 3d e2 75 3d
       0.01738335 -0.05527652 0.07300667 0.06003021
0001d0 32 83 0c 3e be 65 a8 3d c7 78 60 3d 0a b6 27 3d
       0.13721922 0.08222531 0.054802682 0.04094509
0001e0 67 fc 2e bd e7 c7 2d 3d 9f 09 01 be 2b 2f 12 3d
       -0.04272118 0.04242697 -0.12601326 0.035689514
0001f0 f9 31 f9 3c 8a 7c d3 3b e3 d7 2c 3d 9d 0b 01 3e
       0.030419337 0.006454055 0.042198073 0.12602086
000200 3e 1f 57 3e a4 70 ba bd a1 d1 2f 3e 37 8d 16 3d
       0.21008012 -0.09103516 0.17169811 0.036755767
000210 da 61 72 bc c4 86 fa 3d bd 12 0e bd ef c6 87 bc
       -0.014793837 0.12232736 -0.03468584 -0.016574351
000220 28 5f 88 3d 95 0e 0f 3e d3 76 09 3e bc 73 d1 3d
       0.066587746 0.13970406 0.13424234 0.10227153
000230 06 9c ac 3b a5 08 ae 3b 08 a6 cb 3d 62 4f 9c 3d
       0.005267623 0.005311089 0.09943777 0.076323286
000240 0e 54 e4 bd 88 3a 44 bc cb 76 e5 3c 31 4c 90 3e
       -0.11148845 -0.011976846 0.028010746 0.2818313
000250 67 dc 48 be 8d 37 79 3d 15 36 d2 bd 66 8f 5b 3d
       -0.19615327 0.060843993 -0.102642216 0.053603552
000260 df ac 8b bd cc df 38 be 46 71 66 bd ff 16 a3 3b
       -0.06820082 -0.18054122 -0.05626037 0.0049771066
000270 1a a5 ff 3c 0b ce 82 bd 51 35 8c bc 87 d9 2e be
       0.031206656 -0.06386956 -0.017115267 -0.17075168
000280 0c 08 7b 3d b8 1b a9 3d c4 4e 59 3d 85 1f 70 3d
       0.06128697 0.0825724 0.053053632 0.05862381
000290 d3 01 f0 3c 8d e6 05 bc 8e aa a3 3d 1f d7 19 be
       0.029297745 -0.008172643 0.07991515 -0.15023468
0002a0 ec 72 20 bd 40 84 00 ba 53 95 22 3e 3c 20 06 bd
       -0.039172098 -0.0004902519 0.15877275 -0.032745585
0002b0 34 36 90 bd 5e ec 27 bd 85 64 5e bd 6f fe 53 3d
       -0.070415884 -0.0409969 -0.05429508 0.05175632
0002c0 ff b1 15 3e ee 80 0a bd 30 07 17 3e 1b aa 67 bc
       0.14618681 -0.033814363 0.14748836 -0.014139677
0002d0 6b e6 94 3d fd 09 09 3e 2e 05 de 3d e8 01 a5 3d
       0.07270511 0.13382716 0.10840832 0.08057004
0002e0 b5 ea fd 3d d0 62 bb bd c1 f0 e1 3d 53 e4 aa 3d
       0.123982824 -0.09149706 0.11032248 0.08344331
0002f0 c6 30 c0 3c 96 80 37 bd 04 0e 1b 3d c7 60 2b 3c
       0.023460757 -0.044800363 0.037855163 0.010460085
000300 2a 96 60 bd 45 eb 6f bd 08 0b 06 bd 38 63 16 bd
       -0.054830708 -0.05857398 -0.032725364 -0.036715716
000310 b3 57 a8 3d fd 2d 2c bd d2 69 7a 3d 59 1e 04 bd
       0.08219852 -0.042036045 0.061136074 -0.032255504
000320 3a cd 50 be 6e 15 5d 3e c0 08 6d bd 01 f4 c7 3d
       -0.20390788 0.21590206 -0.057869673 0.09763337
000330 83 1c 1a 3d 4a 6e 00 3d 92 ba 21 be 30 14 3a 3e
       0.037624847 0.03135518 -0.15793827 0.18171763
000340 f1 51 7c 3d 9d da 16 be e4 0c 88 3c 29 6d 07 3d
       0.061601583 -0.14731832 0.01660771 0.033063088
000350 f4 96 7a 3c e8 e3 a9 bd b1 e0 9e bc 1f cd f6 bd
       0.015294779 -0.08295423 -0.01939425 -0.120508425
000360 90 40 32 bd 77 ff 1d 3e cc 53 81 3d f7 d7 da bd
       -0.043518603 0.15429483 0.06314811 -0.10685723
000370 af cb 04 3d 95 46 7f bd 34 d7 be bd 3b 23 af bd
       0.03242081 -0.06232317 -0.093183905 -0.085516416
000380 96 d4 1d be bf 2c 66 3c 78 9b 03 3e 69 6b a1 3d
       -0.15413126 0.014048754 0.12852275 0.07881815
000390 8d 1e 12 3d 0d 2d b0 3a d1 0c 4f 3d 51 d4 4d be
       0.035673667 0.001344116 0.050549332 -0.20100524
0003a0 0d 5a 9b 3d d5 39 af bc 9d da c9 bd f8 32 0e 3d
       0.07585535 -0.021389881 -0.0985615 0.034716576
0003b0 29 7e 40 3d cd f2 07 3e 7e 96 7b 3d 84 1f 65 bd
       0.046995316 0.13276215 0.061422817 -0.05593826
0003c0 58 28 be 3d 18 d8 ca bc 52 cb bd 3d aa d5 b5 3d
       0.09285039 -0.024761245 0.09267296 0.08878644
0003d0 eb 30 9a 3d 5a 9c ba 3d db 31 04 bd 45 73 29 3e
       0.075288616 0.09111853 -0.03227411 0.16547878
0003e0 56 ce 58 bd 90 cd 01 3e 91 05 57 3d c4 27 e6 3d
       -0.052931152 0.12676072 0.052495543 0.112380534
0003f0 fa dc 41 3e ba 82 51 bd 50 11 3d 3e b1 ac 5e bd
       0.18931952 -0.05115006 0.18463635 -0.05436391

lstm.bias_ih_l0 f4 [512]
000000 0b 92 0d 3e 72 47 02 3c df 39 e3 bc 3d 9b 89 bd
       0.13825242 0.007951604 -0.027737556 -0.067190625
000010 a9 6a 02 3e 23 a1 35 3e 08 1d e2 3d 4e 1c 89 bc
       0.12736 0.1773725 0.110406935 -0.01673713
000020 7e 11 a8 3c 76 9b 02 3e cc c7 9d bd f5 48 8f 3d
       0.020516153 0.12754616 -0.07704124 0.06996337
000030 e0 17 b3 3d 41 c3 26 3e 2c 82 9d bc d6 61 be 3d
       0.08744788 0.16285421 -0.01922711 0.092960045
000040 4c 09 39 3e 46 54 fc 3c 9d 6c a2 3d 8a 76 b4 3d
       0.18069953 0.030801903 0.079308726 0.08811672
000050 fb 3a c1 bd 99 e2 c1 bd 1c 4c 18 3c 90 78 bf 3c
       -0.09435078 -0.09467048 0.00929549 0.023372918
000060 0d da 96 3d 08 aa dc 3d 56 99 b4 3d 94 c3 c1 bc
       0.07365809 0.107746184 0.08818309 -0.02365283
000070 1b 02 dd 3d 0f 27 0d 3d f1 71 a2 3c b6 dc d4 3d
       0.10791417 0.034461077 0.019829722 0.1039366
000080 06 e3 95 3d d9 bf 0f 3e dc f4 d9 3d b6 25 a2 3d
       0.07318692 0.14038028 0.10642406 0.07917349
000090 4b 0b 06 bd b9 b1 3b bd 13 ee a5 3d b2 43 02 3e
       -0.032725614 -0.045823786 0.0810205 0.12721136
0000a0 42 1a 27 3d b9 d1 b7 3b b9 21 f0 ba b9 a0 9c 3d
       0.040796526 0.0056097177 -0.0018320597 0.07647843
0000b0 8b 8a 98 bc b6 47 ba 3e d7 ed 62 bd cd 33 f1 3d
       -0.01862075 0.36382836 -0.055402603 0.11777458
0000c0 13 42 ae 3b 27 71 f8 bc 2f 67 cc bc bb 74 99 3d
       0.0053179353 -0.030327393 -0.024951546 0.07492968
0000d0 26 77 e6 3d 0b 3f fa bd d5 8b 11 3e 8d 7b 35 3d
       0.112531945 -0.12219056 0.14213498 0.04430728
0000e0 59 30 97 3d 8d 2e e1 3d 48 d4 0d 3b e9 dc dc 3d
       0.073822685 0.10995207 0.0021641422 0.10784323
0000f0 03 2c 06 3d 4e 0b e7 3d 18 d7 f9 3d b5 a2 b6 ba
       0.032756817 0.11281453 0.12199229 -0.0013933989
000100 3c 86 78 3d f1 de 57 3d 96 90 a5 bd 1d 95 ab bc
       0.06067489 0.052702848 -0.08084218 -0.020945126
000110 c8 fa ff 3d 14 47 8e bd 4e 5b 4a 3e e8 0e 08 3e
       0.124990046 -0.06947151 0.19761392 0.13286936
000120 4d 39 4f 3e f1 ca 38 3e f2 91 12 3e 9c 57 eb 3d
       0.20236702 0.18046166 0.14313486 0.114913195
000130 d7 01 26 be 3c 51 17 bb 64 45 c0 3d df b8 35 3e
       -0.1621164 -0.002308919 0.09388235 0.17746304
000140 ce 24 13 3e ca a5 57 3e 3f c9 d0 3d e8 18 71 3d
       0.14369509 0.21059337 0.10194635 0.058861643
000150 35 fc 82 bd 37 71 10 3e 5d 4d f4 3d db bd 11 bd
       -0.06395761 0.14105688 0.119288184 -0.03558145
000160 1c f1 76 3d 7c c1 d1 3d 9d f3 22 3c 7f f9 51 bb
       0.060288534 0.10241982 0.009945777 -0.003203958
000170 f3 01 21 3e db bc a1 3b d1 d3 f8 3c 77 17 39 bd
       0.157234 0.0049358434 0.03037444 -0.045188393
000180 d8 54 6d 3d e7 0f a8 ba 10 ca cb 3d ce 92 dc 3d
       0.05794224 -0.0012822122 0.0995065 0.10770188
000190 80 67 68 3e 23 9b 4e 3e e4 c7 3d 3d d9 40 69 bd
       0.22695732 0.20176367 0.04633321 -0.05694661
0001a0 07 81 4f 3e 28 7d 55 3c c4 cf 09 bd bf 03 83 3d
       0.20264064 0.013030328 -0.033645406 0.06397199
0001b0 00 c3 b8 3d a3 8c f0 bc 8f bc 83 3d e2 c3 34 3e
       0.09021568 -0.029363936 0.06432449 0.17652848
0001c0 29 4d 55 3d 32 9d bc 3d ea 7b 64 3b 20 11 b9 3c
       0.05207554 0.0920967 0.0034863898 0.022591174
0001d0 fc 18 3e bd 6f fb 0b 3e fd fa bf 3d 79 e7 e1 3d
       -0.046410546 0.13670133 0.09374044 0.11030478
0001e0 e5 cf 7c 3d 76 81 05 3e 26 25 3a bd a6 dd 97 3d
       0.0617217 0.13037667 -0.045445584 0.07415323
0001f0 4b e5 43 3d c8 2a 05 3d c4 bb ec 3d b5 34 65 bd
       0.047826093 0.032511503 0.11559251 -0.05595847
000200 50 bc 84 3d 34 b0 06 bd 64 c4 5b bd be 82 16 3b
       0.0648123 -0.032882884 -0.05365409 0.0022966112
000210 c5 9e 18 3b e7 73 8f 3d e6 f3 c3 3c a9 2d cc 3c
       0.0023287993 0.070045285 0.02392001 0.024924116
000220 f3 8e 43 3d 21 25 bf 3c 25 67 bf 3d dd d0 04 3e
       0.04774375 0.023333134 0.09345845 0.129703
000230 a1 1f a2 3d 7a 3d 1f 3e 15 b3 c9 3d b5 ed fc bb
       0.07916189 0.15550795 0.0984861 -0.0077187666
000240 46 73 ae bb 7f d0 39 3d 8b 60 f0 3c d4 98 68 bb
       -0.0053238003 0.045364853 0.02934291 -0.0035491483
000250 2f 29 27 3e 03 50 8e 3c 30 ae 08 bd 52 83 1b bd
       0.16324304 0.017372137 -0.033369243 -0.037967034
000260 5d 1a 06 3e 87 bf b0 bc ec 41 67 3d a8 83 b8 3d
       0.13095994 -0.021575702 0.056459352 0.090094864
000270 9c 52 ee bc 7c 10 83 3d 09 ad f2 3d a8 1e c7 3d
       -0.029092126 0.063996285 0.1184941 0.09722644
000280 3d 6f d6 3d 3a 92 1b 3d 49 3a 04 bd ef 3b f4 3d
       0.10470436 0.03798125 -0.032282148 0.11925494
000290 f6 f5 6d 3d bd c1 97 3d 45 fd 04 3e cd bf 17 3c
       0.058095895 0.074099995 0.1298724 0.009262037
0002a0 14 6a 4d 3d 70 1d 13 3d a4 ba cf 3d 86 b1 1f 3e
       0.050149992 0.035916746 0.10143021 0.15595064
0002b0 21 02 c5 3d be 17 28 3e 6f 89 fd 3d 56 1d 05 3e
       0.09619547 0.16415307 0.12379729 0.12999472
0002c0 06 77 05 bd 41 41 86 3d 56 70 9e 3c 61 e8 09 bd
       -0.032584213 0.06555415 0.019340675 -0.03366888
0002d0 80 32 73 3d 5d 06 5f 3e 68 48 a7 3d 4b 83 83 3d
       0.059374332 0.21779771 0.08168107 0.064215265
0002e0 49 a4 9d 3d a5 32 31 3d 98 32 23 3d 6d 7c 81 3d
       0.076973505 0.04326119 0.03984317 0.063225605
0002f0 53 e6 5c bd c1 79 0a 3e 53 15 83 3d 01 0c a7 3d
       -0.05393059 0.13523008 0.06400552 0.081565864
000300 2b 14 d1 3d 7b 3c 66 3e eb 0e e6 3d 00 03 be 3d
       0.10208925 0.22484009 0.11233314 0.09277916
000310 2f 05 8d 3d 92 13 61 3d 59 76 ff 3d 46 59 5a 3d
       0.06885754 0.054950304 0.12473745 0.053307794
000320 a5 a7 3e 3d cb f0 28 3d c1 85 f1 bc e8 4b ad 3d
       0.046546597 0.041245263 -0.029482724 0.084617436
000330 6f 21 24 3e f9 41 7e 3d f9 1c 65 3d 83 85 43 3d
       0.16028379 0.062074635 0.055935834 0.04773475
000340 cd 28 de bb 1b 55 44 3d 2c 77 c5 3c 89 72 01 3c
       -0.006779766 0.047932725 0.024104677 0.007900842
000350 5b 75 d4 3d ac 44 cb 3d dc 5b 00 3e 7a 4b b5 3d
       0.10373946 0.099252075 0.12535042 0.08852287
000360 01 55 51 3e 6b 07 ec 3c a7 e8 94 3d 08 45 2a 3e
       0.20442583 0.02881213 0.072709374 0.16627896
000370 3e d3 4c 3e 9a b0 19 3e c1 fd 41 3d d3 00 af 3d
       0.20002457 0.15008774 0.04736114 0.08545079
000380 9b 91 87 3d ff 32 fb 3d 53 de 72 3a fc 8d 01 3d
       0.06619569 0.12265586 0.0009264696 0.031629547
000390 ac 7c b1 bc 0c eb 3e 3d 4b ff 57 3d 73 29 1d 3e
       -0.021665893 0.046610877 0.0527337 0.15347843
0003a0 5a 62 a1 bc d5 45 12 3c d5 cf 81 3d 03 42 44 3e
       -0.019700218 0.008927782 0.06338469 0.19165806
0003b0 d5 56 1a bc ca d0 81 3d 8d aa 47 3d 77 6f dd 3d
       -0.009420116 0.063386515 0.048746634 0.10812276
0003c0 a9 5e 2e bd d2 c1 c9 3d e5 a0 05 3e cb f1 9e bc
       -0.042570744 0.098514214 0.13049658 -0.019402405
0003d0 7c c9 2f 3d 5f 1a 01 3d fd cc e8 bb 2e 3a a0 bc
       0.04291676 0.03151929 -0.0071045146 -0.019558992
0003e0 bc e8 af 3d 37 0b 32 3d 9b 89 65 3d 70 06 be bc
       0.085893124 0.043467727 0.056039434 -0.023196429
0003f0 3c b1 d9 bc 84 64 21 3d 0c 4d a4 3d a5 91 7c 3c
       -0.02657377 0.0394025 0.08022508 0.015415584

lstm.bias_hh_l0 f4 [512]
000000 ae aa c8 3c e7 e8 a6 bd 39 3a 47 3d a7 48 39 bc
       0.024495449 -0.08149891 0.04863951 -0.011308826
000010 13 e7 07 3e 48 87 f1 3d f0 b0 f7 bc c6 36 da 3d
       0.13271742 0.11793381 -0.030235738 0.106549785
000020 19 37 e7 3d 69 30 5f 3e 64 15 80 bd e2 02 1a bd
       0.11289806 0.21795811 -0.0625408 -0.037600406
000030 86 f2 15 3e 49 8d 36 3e e8 b9 e3 3c 20 68 a2 3d
       0.14643297 0.17827334 0.027798608 0.079300165
000040 c0 3d 04 3e f2 3b d0 3c cf be 69 3e c6 52 09 3d
       0.12914181 0.02541921 0.22826694 0.033526205
000050 a6 2b 7b bd e8 8d 95 bc 12 6f 1d 3c 0f 2e 3f 3d
       -0.061320923 -0.018256143 0.009609001 0.046674784
000060 81 f8 c6 3d 10 f8 1a 3e 2a f5 3e 3e 77 bb e0 3d
       0.09715367 0.15133691 0.1864821 0.10973256
000070 69 fd bd 3d 32 7e 8e 3c 49 7d 70 bd d8 6e 08 3e
       0.0927685 0.017394159 -0.05871323 0.13323534
000080 21 6f 0a 3d 97 3d e9 3d 59 c0 73 3c cc 2a 9e bd
       0.033797387 0.113887005 0.014877402 -0.077230066
000090 eb 3f ce 3c cc d5 c5 bd 38 6d 25 bd 79 23 02 3e
       0.025176963 -0.09659919 -0.040387362 0.12708844
0000a0 0a 97 43 bd 56 2b 07 3e b7 2b 02 bd 98 e5 7f bb
       -0.047751464 0.13200125 -0.03177997 -0.003904676
0000b0 2d f6 1e bd b6 cf b4 3e a5 f7 33 3d e3 4d 05 3e
       -0.03880899 0.3531472 0.043937344 0.13017993
0000c0 1f d0 11 3d 9e ab b9 3d 03 ac ae bd 66 f3 d8 bc
       0.03559887 0.090659365 -0.085289024 -0.026483249
0000d0 2a 84 e9 3d c8 07 72 bd c0 0b 77 3d fb 9f 99 3d
       0.114021614 -0.059089452 0.06031394 0.07501217
0000e0 95 21 f4 bb 12 11 dd 3b 8d d9 de ba 27 3f 81 3d
       -0.0074502924 0.0067464197 -0.0017002091 0.063108735
0000f0 1b 09 70 bd 0e 83 ac 3d e6 77 bc 3d bc 01 ac 3c
       -0.058602434 0.08423434 0.09202556 0.02099692
000100 88 8a 8b 3d 09 32 32 3e 99 39 79 bc 6a ce 85 3d
       0.06813532 0.174019 -0.015211486 0.06533511
000110 88 e0 ca 3d b3 c9 76 bc 59 f6 c2 3d e3 3c 02 3e
       0.09906107 -0.015062737 0.09519643 0.12718539
000120 cd a1 18 3d 91 50 11 3e 84 e3 46 3e ab 94 ef 3b
       0.03726368 0.1419089 0.19422728 0.007311424
000130 4f 82 c5 3b fc 85 be 3d 10 0a 85 3d 97 03 c9 3d
       0.006027497 0.09302899 0.0649606 0.09815138
000140 56 d0 bf 3d ef 00 84 3e ac 82 23 bd 9b dd eb 3d
       0.09365909 0.25781962 -0.03991954 0.11516877
000150 ad 75 28 be c4 ab 8a 3d 05 cf 95 3d 23 87 5c 3d
       -0.1645114 0.06771043 0.073148765 0.053839814
000160 8e 98 12 3d bb a1 36 3e a2 b9 1e bd 53 6b 92 bc
       0.03579002 0.17835133 -0.038751252 -0.017873442
000170 63 d0 4c 3e 12 7b d2 3c c3 f4 0a bd bf 51 1c bd
       0.20001368 0.02569345 -0.03392483 -0.038163897
000180 25 b3 c0 3c eb fb 91 3d bc 59 ee 3d 8d bd 60 3e
       0.023522923 0.07128128 0.11638209 0.21947308
000190 0e 82 fd 3d d9 5a 66 3e 56 e6 17 bd c6 5b fb bd
       0.123783216 0.22495593 -0.0370849 -0.12273364
0001a0 a1 29 1c 3e 85 d4 86 3d ba 00 1a bc 1e 00 b7 3d
       0.15250255 0.06583504 -0.009399587 0.08935569
0001b0 6a 67 cb 3d 83 bb 80 3d 2e 3c dd bc 56 dd 06 3d
       0.09931834 0.06285765 -0.027006235 0.032925926
0001c0 e1 1b c3 3d 0f e6 76 3c c5 ca 8d bc 20 81 7e 3c
       0.09526802 0.015069499 -0.017308602 0.0155337155
0001d0 01 08 dd bd fa c6 8a 3d a9 44 d9 3d 34 80 37 3d
       -0.10792542 0.06776233 0.10608799 0.0448
0001e0 a0 fe e2 3d 4c 1f 12 3e c2 19 1d bd 1e d4 b2 3d
       0.11083722 0.14269751 -0.038354643 0.087318644
0001f0 2b 0c f4 3d 43 d2 85 3c 38 cd 56 3e 9b 6a 9d 3d
       0.11916383 0.016335612 0.20976722 0.07686349
000200 08 35 23 3c 77 1c a3 3c 76 c7 7b 3d 58 e5 14 3e
       0.009961374 0.019911034 0.061469518 0.14540613
000210 4b f8 c8 3d 9d 0f 68 3d 96 9c b9 3d 97 66 32 bc
       0.09812983 0.056655515 0.090630695 -0.010888717
000220 98 95 ce bc 90 e4 1e 3e 3c ca 05 3e 90 dd 0b 3e
       -0.025217816 0.15516877 0.13065428 0.13658738
000230 84 fc 3f bc 73 36 a7 3d 11 ce ae 3d 81 85 47 bc
       -0.011717919 0.08164682 0.08535398 -0.012177826
000240 44 3c d3 3d af 7c 9a bb 8d c9 9e bb 47 14 3a bd
       0.10314229 -0.0047145705 -0.004845804 -0.045429494
000250 ab 6b 18 bb d6 2b c8 bd 25 a3 70 3d a5 22 2a bc
       -0.0023257534 -0.09773986 0.058749337 -0.010384236
000260 d6 32 6a 3d 70 f6 b7 3d cb f7 e2 3d ee f0 03 3e
       0.057177387 0.08982551 0.11082419 0.12884876
000270 17 01 ef bc 26 9a c9 3a 56 38 14 3e 34 5d 61 bc
       -0.029175324 0.0015381023 0.14474615 -0.0137551315
000280 fb cc 6f 3d 01 fd 17 3e ff 6b b8 3d 93 3c 70 3d
       0.058545094 0.14842607 0.090049736 0.058651518
000290 54 5c 68 3a 87 31 17 bc 0f 38 0d 3e 31 75 74 3c
       0.00088638556 -0.009228117 0.13790916 0.014920519
0002a0 08 fe 88 3d 56 83 80 3c 6a 5a bb 3c 4b 43 e5 3d
       0.066890776 0.015687626 0.022870261 0.11194476
0002b0 67 17 e4 3d cd 1d c4 3d 5c 9b fe 3d 62 66 16 3c
       0.11137276 0.095759965 0.12431976 0.009179683
0002c0 65 d5 d0 bb b0 4e a7 3d af c9 9a 3d 5f 0c b9 bb
       -0.006373095 0.08169305 0.07557999 -0.0056472267
0002d0 13 f5 83 3d c9 d4 5f 3e 30 e9 89 3d d7 1e 24 bd
       0.064432286 0.21858515 0.0673393 -0.040068474
0002e0 49 36 69 3c 58 e8 ae 3d a4 74 93 3d e6 44 6f b9
       0.014234134 0.0854041 0.07199982 -0.00022818483
0002f0 9c 73 02 bd 73 5e ea 3c 88 73 84 3c 99 af 0f 3d
       -0.031848535 0.02860949 0.01616837 0.035079572
000300 4a c7 d8 3d c3 83 f5 3d fa 1c 57 bc 57 e9 18 3e
       0.10584886 0.11988022 -0.013129467 0.14932762
000310 c5 3f 74 3d 08 4d ca 3d e0 8d 26 bd e0 60 4b bd
       0.059631128 0.09877974 -0.040662646 -0.049652934
000320 55 ad f6 3d 73 0b db 3d a8 f1 0b 3d 21 cc 8b 3c
       0.12044779 0.10695543 0.03416601 0.01706511
000330 46 55 e0 3c 3a 46 ef 3b 26 95 ad 3d 0d 34 e0 3d
       0.027384412 0.007302073 0.084757134 0.10947428
000340 43 99 d8 3d 67 66 1f 3e 47 da 94 3d 68 d6 b5 3d
       0.10576107 0.15566407 0.072681956 0.08878785
000350 27 aa fc 3d e2 96 21 3e f1 b6 f8 3c 7f d1 31 bd
       0.123371415 0.15780213 0.03036067 -0.04341268
000360 7d d4 38 3e 21 a1 bb 3b 0b 49 47 bd ce 9c 87 3d
       0.18049808 0.005725995 -0.048653644 0.06621705
000370 52 ba 71 3e ef 47 f8 3d 81 e3 08 bd bf d2 0a 3e
       0.23606232 0.12123095 -0.03342009 0.13556956
000380 e8 b4 fc 3c 7a 8d 49 3c 20 c4 fa 3c 17 83 bb bb
       0.030847982 0.012301797 0.030611098 -0.0057224142
000390 82 fd b2 3d 2f e1 b9 3d d6 e9 8f 3c 7e 1d fc 3d
       0.08739759 0.090761535 0.017567556 0.12310313
0003a0 1e 63 1a bd 4f c4 c9 3d f1 e6 36 3d 5e 58 a3 3d
       -0.03769218 0.09851896 0.044653837 0.07975839
0003b0 94 08 77 3d 20 33 cd 3d 09 72 00 3e 1e 59 a1 3c
       0.060310915 0.10019517 0.12543501 0.019695815
0003c0 69 87 87 3d 6d 69 82 3d 6a 40 8f 3c fb fe ff bd
       0.06617624 0.063677646 0.01748677 -0.124998055
0003d0 ce 20 84 3d e7 3a be 3c 01 eb 2e 3d b3 25 00 bd
       0.064515695 0.023221446 0.042704586 -0.031285953
0003e0 74 54 de 3d b8 47 ff bc 3d d4 59 bd 67 09 92 3d
       0.10855952 -0.031162128 -0.05318092 0.071306996
0003f0 96 23 08 3d e3 be a5 3a 6b 0a 0e bd 6c 9e 1b bc
       0.033237062 0.001264539 -0.034677904 -0.00949822

lstm.weight_ih_l1 f4 [512, 128]
000000 2a e8 d9 ba f3 de 1d 3d 9e ad b3 bb 15 fb e6 bc
       -0.0016624976 0.0385427 -0.0054833433 -0.028195897
000010 30 c8 a2 3d 92 71 bd bd 3b 7c 89 bc aa dd 75 bd
       0.07948339 -0.092501774 -0.01678287 -0.06002585
000020 ff 4b 94 3d 9b 6c 85 bd 15 df 88 bd 5f c4 89 3d
       0.072410576 -0.065148555 -0.066831745 0.06726908
000030 ed 74 ec 3b 27 3d da 3d 4d a2 4a 3d c8 0a 58 bd
       0.007216087 0.10656195 0.04947119 -0.052744657
000040 81 f2 ad 3c 5b 36 39 3d 4e 9c 20 bd 06 1d 83 bd
       0.021233799 0.045217853 -0.039211564 -0.0640202
000050 34 24 8e 3b 2b 86 e2 3c b9 73 32 bd 9e 08 31 bd
       0.004337812 0.027651867 -0.043567393 -0.04322111
000060 88 30 7b bd 1d c7 91 3d af 42 0e bd 55 e1 ab 3c
       -0.06132558 0.07118056 -0.034731563 0.02098147
000070 f0 04 8e 3d 7a b1 0d bd 7f 4c 1b bc 4d f5 90 bc
       0.069345355 -0.034593083 -0.009478687 -0.017695094
000080 68 56 d3 3c 40 55 1b bd 70 db 88 3d d8 2d b5 3c
       0.025798038 -0.037923098 0.066824794 0.022116587
000090 b7 01 df bb c4 ab 60 3c 5a 3c b6 bc d5 f0 65 3d
       -0.0068056243 0.013712827 -0.022245575 0.05613788
0000a0 9c ca c9 bb a1 3c 36 3c ae 0e 31 bd ce a2 d8 bd
       -0.006158186 0.0111228535 -0.04322689 -0.105779275
0000b0 14 5a 73 3d d3 23 0a 3d 12 73 4a bd 09 a1 09 3c
       0.059412077 0.03372557 -0.049426146 0.00840021
0000c0 d9 a3 5d 3d e5 9f c9 3d f6 0f c1 bd 35 12 86 3d
       0.054111335 0.098449506 -0.094268724 0.065464415
0000d0 59 e1 30 3e 4e fc a3 bc 61 48 9c bc b0 8e bd bd
       0.17273463 -0.02001777 -0.019077482 -0.09255731
0000e0 e4 29 de 3c 58 41 f6 3c 11 7d 18 3d bc 4b 8f 3c
       0.027119584 0.030060455 0.037228648 0.017492168
0000f0 81 68 b8 ba 28 e0 4a 3b c2 1a e9 bc 19 e2 f3 b9
       -0.001406923 0.0030956361 -0.028455142 -0.00046517028
000100 fb 5e b2 3c 53 34 b2 bd e7 36 29 3d 0c 1b e1 3d
       0.021773806 -0.08701386 0.041312125 0.10991487
000110 05 85 da 3b 53 0f 9e 3d 97 10 a3 bd e2 02 b3 bd
       0.006668689 0.077177666 -0.07962149 -0.08740784
000120 a7 5c 5e bd 80 55 64 3d e0 e3 d0 3d f1 8e 14 3d
       -0.05428758 0.0557456 0.10199714 0.036269132
000130 f1 40 43 bd 0d 1a 21 3c 3a 6a e2 bd e7 a4 2a 3c
       -0.047669355 0.009832871 -0.11055417 0.010415292
000140 d2 01 66 3d 1f 00 3b 3d 59 e8 ad bd 7b 8b f4 3b
       0.05615408 0.045654412 -0.084915824 0.0074629164
000150 0e 85 0e bc 06 1d ce 3b e9 b2 d0 3d 45 09 92 bc
       -0.008698715 0.006290081 0.101903744 -0.017826686
000160 23 69 3f bd f6 13 0e 3c 3b b2 47 3d c2 19 c1 bc
       -0.046731126 0.008671751 0.04875396 -0.023571853
000170 8b 25 2a 3e f2 53 8d bd c2 68 b8 bc 95 e1 fe 3c
       0.16615884 -0.06900777 -0.02251089 0.031113425
000180 1c 5f 1d bc 90 17 21 3c a0 ec ec 3c 19 9a 85 bd
       -0.009605195 0.009832278 0.028921425 -0.065235324
000190 5a d7 ac bd 20 43 b4 bd f4 1a 43 3d 29 4b 68 ba
       -0.084395126 -0.088018656 0.047633126 -0.00088612974
0001a0 bd 4a b7 bd c7 d1 de 3c d8 93 c6 3d 99 bf c8 bd
       -0.08949802 0.027199639 0.09696168 -0.09802169
0001b0 ee c8 1b bd c7 5b 3f bd 00 70 75 bd 82 3f 73 3c
       -0.03803342 -0.046718385 -0.059921265 0.014846684
0001c0 75 d8 29 3d e0 99 33 3d 85 c5 b6 3d 3d 04 44 3d
       0.041466195 0.04384792 0.089243926 0.047855604
0001d0 60 f4 2e 3d 06 ab 5b 3c 15 f4 95 bd 0e 49 d7 3b
       0.042713523 0.013407474 -0.073219456 0.006569988
0001e0 5e e3 8c 3d b2 9e 2d bd ac 19 23 3d af e1 b5 bc
       0.06879304 -0.04238767 0.039819404 -0.02220234
0001f0 c9 9f ec bc 7a e0 58 bd 2d 9a 87 3d 82 84 84 3d
       -0.028884785 -0.052948453 0.066212036 0.06470586
000200 e9 c5 e9 bb c8 f5 5c bc 8e 54 86 3c 19 a1 3e 3c
       -0.0071341884 -0.013486333 0.01639774 0.011635088
000210 e3 20 bb 3d 0d da 9d 3c c1 64 55 bc 0e 17 13 3d
       0.09137132 0.019269014 -0.01302451 0.03591066
000220 8e 7e 89 bc 91 5a 5e 3d 91 09 99 3d a3 6f c3 3d
       -0.016783979 0.05428559 0.07472528 0.095427774
000230 14 cb 2c bd 2b 30 39 bd a0 df a7 3d 1a 8d 8d bd
       -0.042185858 -0.045211952 0.0819695 -0.069116786
000240 26 b9 83 3d f4 62 67 3d f8 95 86 3c 15 27 44 bd
       0.06431799 0.056490853 0.016428933 -0.047888834
000250 cb 23 17 3d 1c 28 c5 3c 2a 4c d7 3d 80 d5 6c 3d
       0.03689937 0.024066977 0.10512574 0.057820797
000260 46 9f 03 be ad 31 50 bb f9 61 a7 3d 50 05 59 ba
       -0.12853727 -0.003176789 0.08172984 -0.00082786847
000270 7b 24 4e bd 79 ed e7 3c 8f 57 42 bd 38 ec a8 3c
       -0.05032776 0.028311478 -0.047446784 0.02062045
000280 38 9a c0 3c 11 8d 21 ba 78 c4 88 bc 39 24 cb bc
       0.023511037 -0.0006162683 -0.016695246 -0.024797546
000290 d8 08 15 ba 10 37 ad bd 5a d8 e7 3d 18 53 0f bd
       -0.0005685217 -0.08457768 0.11320563 -0.034991354
0002a0 b1 41 7b 3d a5 2a 60 3c d1 02 0e bc 91 ab ae bd
       0.061341945 0.013682042 -0.008667664 -0.085288174
0002b0 1a 64 5e bd 79 16 f4 bb 84 95 db 3d fd 4b 87 bc
       -0.054294683 -0.007448968 0.10721877 -0.016515726
0002c0 f6 28 80 3a 88 d3 45 3d 8c b8 0b 3d 38 39 01 3d
       0.0009777832 0.048297435 0.034111544 0.03154871
0002d0 8a 6c 59 3e 39 89 14 bd 70 41 a3 bd 61 2a eb bc
       0.2123281 -0.03626368 -0.079714656 -0.028706731
0002e0 d0 df d1 3b ee 93 ad 3d 14 0c 1f 3d 81 18 e4 3d
       0.0064048544 0.08475481 0.038829878 0.11137486
0002f0 e8 a2 ed bd e2 69 ff bd aa f4 3a 3e 6a eb 03 bd
       -0.116033375 -0.124713674 0.18257394 -0.03220693
000300 92 09 2b be 6f 23 a8 bd 3b 8f 5f 3d fd 8a aa 3d
       -0.1670287 -0.082098834 0.054579955 0.08327291
000310 53 36 78 3d 2b 33 65 3e 09 6d cf 3c b2 71 5f bd
       0.060598683 0.223828 0.025320547 -0.054551788
000320 99 8d 09 3d 74 5f f0 3c 47 21 4d 3d 8b a9 38 bb
       0.033582304 0.02934239 0.050080564 -0.0028177227
000330 2e 38 9f bc b1 ad 6f 3d bc 2a c2 bd 66 00 3f 3d
       -0.019435968 0.058515254 -0.09480807 0.04663124
000340 b4 14 14 bd 5a 94 82 3c 55 e5 fb b9 30 9a 8f bc
       -0.036152557 0.01593988 -0.00048045316 -0.017529577
000350 df 8c 2a 3b 35 82 c0 bc 06 52 81 3d 79 ce 4d bb
       0.0026023907 -0.023499588 0.06314473 -0.0031403585
000360 3d 00 08 be 8b 53 b3 bc 58 98 70 bc f5 7b e7 bd
       -0.13281341 -0.021890422 -0.014684759 -0.1130294
000370 c8 da 40 3e b4 bc e6 bd 51 25 61 bd c7 6d 86 3d
       0.18833458 -0.11266461 -0.05496723 0.06563907
000380 84 1f 80 bd ff 6a 32 bd ed 35 b0 bc 8b 8d ce 3d
       -0.06256011 -0.04355907 -0.021510089 0.10085591
000390 c6 08 a3 bd 46 0c 4c bd 0c 58 b6 bd 41 15 d8 bd
       -0.07960658 -0.049816392 -0.08903512 -0.10550929
0003a0 9c af 9c bc e4 1d ec 3d aa 6e cc 3d b3 a8 38 bd
       -0.019126706 0.11529139 0.09982045 -0.04508276
0003b0 03 6b 62 3d f6 aa 5d bd dc 3d 94 bd 51 a4 12 bc
       0.055277836 -0.05411812 -0.07238361 -0.008950309
0003c0 2f 2e 2f 3d bf 37 b9 3b ad 1d 07 3d 31 ad 1f bd
       0.042768653 0.0056523974 0.032987285 -0.038983528
0003d0 f7 d1 50 bd 3a 35 af bc de 6c a7 bd 53 04 00 bd
       -0.050981488 -0.021387685 -0.08175062 -0.031254124
0003e0 dc e8 4f 3e 0f 3e b1 bc 01 8d 88 bd 46 5d b7 39
       0.20303673 -0.021636037 -0.06667519 0.00034973974
0003f0 4e a2 28 3c 17 cf 08 bc ef 22 bd 3c 81 a0 13 bd
       0.010292603 -0.008350155 0.023087947 -0.03604174

lstm.weight_hh_l1 f4 [512, 128]
000000 98 fa e1 3c 72 d5 c1 3d 3e 62 6b bd 2b d0 3a bd
       0.027585313 0.094645396 -0.057466738 -0.04560868
000010 3f 72 ab bd 87 41 a7 bc 8d b6 1f 3d 96 50 78 bd
       -0.083714 -0.020416988 0.038992453 -0.060623728
000020 01 a1 b5 bc 18 f9 1f bd 0c 5e 8b bd c3 00 8c 3d
       -0.0221715 -0.039055914 -0.068050474 0.06836083
000030 c0 46 08 3e fc 4d 9e bd 25 16 b2 bc 4a b4 ae bc
       0.13308239 -0.07729718 -0.021739075 -0.021326203
000040 25 56 94 bd ac a2 8a bd cb 93 ee 3c 79 fb 84 bd
       -0.07242993 -0.067693084 0.029123208 -0.06493277
000050 af 93 b6 3d 51 97 29 bd 39 de 51 bd f8 f2 3c bd
       0.08914887 -0.041404072 -0.05123732 -0.04613015
000060 41 4c 10 bb 11 b8 40 bc a2 78 de 3c d5 5e e6 3c
       -0.0022018107 -0.011762635 0.027157132 0.028121391
000070 57 2c a4 bd 68 51 0b bb 1b 07 52 bd 08 f0 85 3c
       -0.0801627 -0.0021258239 -0.051276308 0.016349807
000080 b3 f2 8f bc 0c 3d c2 bd 31 d6 7c 3c 30 c8 49 bd
       -0.017571783 -0.094843 0.015431927 -0.04926318
000090 fc 47 ac bd 8b c5 cc 3d a3 4f e1 3c 4b 7a 39 bd
       -0.084121674 0.09998616 0.027503794 -0.045282643
0000a0 5e b4 e3 bc 8d 6e be bc 76 75 0d 3c 06 78 37 3d
       -0.027795967 -0.023246074 0.008633962 0.044792198
0000b0 2c 28 b5 bd 6a ee ba bd b9 45 92 bd e7 03 58 bd
       -0.08845553 -0.09127505 -0.07142205 -0.052738097
0000c0 c1 cb 2a bd 12 26 04 3d 23 90 7c bc 1a 14 72 bd
       -0.04169822 0.03226287 -0.015415224 -0.0591012
0000d0 9e 5a 64 bd 2a c4 04 3d c2 9f d2 bd 35 dc e0 3d
       -0.05575048 0.03241364 -0.10284378 0.10979501
0000e0 a7 bb 83 bd 91 34 37 3d 78 27 0e bd 86 f9 84 3d
       -0.06432276 0.044727866 -0.03470561 0.06492905
0000f0 1b cf 39 bc cc 91 d9 bd 16 0a 7a bd b7 db f7 bd
       -0.011340882 -0.10623512 -0.061044775 -0.12102454
000100 e1 9e 78 bd 5e bb 70 3d 89 83 a6 3b 9f 27 d2 bb
       -0.060698394 0.058772437 0.005081598 -0.0064134146
000110 ee 7b 97 3c 7c b3 47 3d f4 24 f0 bb dd fe 15 bd
       0.018491711 0.048755154 -0.007328624 -0.03662001
000120 6e 68 2f bd 93 a4 9d 3d f6 d9 9b bd 19 6d f8 bb
       -0.0428242 0.07697406 -0.07609932 -0.007581365
000130 a7 ee 91 3c 60 33 a2 3d cc 33 05 bd 76 cb 3d 3d
       0.017813994 0.07919955 -0.0325201 0.046336614
000140 93 b5 f6 bc 9d ae f5 3c 2d 37 5a 3c da 86 47 bb
       -0.030115878 0.029990489 0.013318819 -0.0030445368
000150 62 70 ca bd b3 80 ce 3d 4d 05 82 3d 68 de 0a bd
       -0.098847166 0.10083141 0.06348667 -0.03390351
000160 4c ee db 3b ec 4e 84 bd 0d 1f b5 bc 18 47 2a 3d
       0.006711757 -0.06460366 -0.022109533 0.041571707
000170 56 54 1e 3d 10 3a 46 bd 6e 03 5c bd e6 95 5e 3b
       0.038654648 -0.048395216 -0.05371421 0.0033963858
000180 77 8c b4 3c 11 a0 bc bc 21 c9 a2 bd 60 d6 bd bd
       0.022039635 -0.023025544 -0.079485185 -0.092694044
000190 98 54 92 3d 97 b8 82 3d 74 c4 e2 bc 9a f8 44 bd
       0.07145041 0.06382864 -0.027681567 -0.048088647
0001a0 d1 23 c7 3d d4 35 3e 3d a8 76 56 3d e7 4c bb 3d
       0.09723628 0.046438053 0.052359253 0.09145527
0001b0 e0 7e 18 3d 63 05 5e 3d ed bb 46 bc 78 dd ae bb
       0.037230372 0.054204356 -0.012129766 -0.0053364597
0001c0 0b 98 c1 bc d2 ec c7 bc 07 52 86 bb 8c 72 53 3d
       -0.02363207 -0.024404917 -0.004099134 0.051622912
0001d0 a3 48 68 bc 77 05 9f 3d e7 ea 99 3d 67 19 e3 bd
       -0.014177474 0.07764714 0.07515507 -0.110888295
0001e0 64 c3 9f 3d 8f 8d bd 3b 27 52 73 bd 23 18 bb 3c
       0.0780094 0.0057846974 -0.05940452 0.022838658
0001f0 76 a4 33 3d 5c 81 b4 3c 76 20 85 bb a5 14 a1 3b
       0.043858014 0.02203434 -0.0040627075 0.004915791
000200 7b ca b0 bc a0 9c a5 bc 45 2d f1 3c 7c cd 5e 3d
       -0.021580925 -0.020216286 0.029440532 0.054395184
000210 a1 20 c4 bd 7e 3d 88 bd 8a 58 8e 3d 0c f4 06 be
       -0.09576536 -0.06652354 0.06950481 -0.13179034
000220 6f 10 16 bd 5b 9f a5 bc 46 9d 5c bd 5f 9d 35 bc
       -0.036636766 -0.020217588 -0.053860925 -0.0110848835
000230 50 98 47 3d ee 8b a4 bd 3e cd f0 bd 9c 97 ee bc
       0.04872924 -0.08034502 -0.11757897 -0.029125027
000240 16 53 99 bc af ab ee 3c dd 26 56 bd 69 e6 cd bd
       -0.018716376 0.0291346 -0.052283157 -0.10053713
000250 62 c7 e9 3d 41 79 58 3d af 53 d9 bd 1b e9 30 bd
       0.114149824 0.05285001 -0.106116645 -0.043191057
000260 39 8a b8 bc 36 cc 19 bd 13 1a 40 3d a6 b5 19 3e
       -0.022526847 -0.037548266 0.046899866 0.150107
000270 97 19 81 3c 4e e4 c5 3d 3e e8 a1 bd 2b fd 99 3d
       0.015759273 0.09662686 -0.07905625 0.07518991
000280 fb 61 d5 bd be b6 4a 3c ce 25 e2 3c 4d a3 db bb
       -0.10419079 0.012372671 0.027605917 -0.0067028166
000290 45 7b 0f be 51 3e 93 3d 1e 8d 41 3d 8b e3 86 bd
       -0.14011867 0.0718962 0.04725372 -0.06586369
0002a0 6a 6a 28 bd e8 43 bb 3c 4b 08 85 bd c1 a0 96 bc
       -0.04111711 0.022859529 -0.064957224 -0.0183872
0002b0 47 58 14 be 89 21 10 bb ea c5 d9 bd a3 41 2b bc
       -0.144868 -0.0021992645 -0.10633452 -0.010452661
0002c0 1e 23 6b bd ba 43 89 bd 79 b2 26 3d 72 d2 a8 3d
       -0.057406537 -0.06702371 0.04069755 0.08243264
0002d0 f6 fe 13 3e 74 11 80 bd 5d e3 35 be 36 e4 7b bc
       0.14452729 -0.06253329 -0.17762513 -0.015374234
0002e0 b4 04 8b bd 33 0a 88 bd 57 3c fd b9 8f 88 53 bd
       -0.067880064 -0.0664257 -0.00048300877 -0.051643904
0002f0 1c 14 04 bd 6e 04 b0 bc 79 1b c3 3d 10 e6 66 bd
       -0.03224574 -0.021486487 0.09526724 -0.05637175
000300 03 53 63 3c 86 68 11 be 30 8c 43 bd f4 93 2e bd
       0.013874772 -0.14200029 -0.047741115 -0.042621568
000310 f5 43 3b bd e3 16 87 bd 33 1d 57 3c d1 53 4b 3d
       -0.045719106 -0.06596162 0.01312952 0.04964048
000320 fd 08 0b 3d 78 07 f3 3d df a6 b9 bd c1 e4 0a 3d
       0.03394412 0.11866659 -0.09065031 0.033909563
000330 81 a7 36 be e9 1a 0a 3d 90 bd 3e 3d 3a 5d 6c 3d
       -0.17837335 0.03371707 0.0465675 0.057706095
000340 20 60 b5 bb 5d ea 01 3d 25 b6 bc 3d a2 c1 ef 3c
       -0.0055351406 0.031717647 0.09214429 0.029267136
000350 2b b0 f9 3c 91 08 c1 ba 63 a7 84 bc f2 7b d4 3d
       0.030479511 -0.0014727284 -0.016193097 0.10375203
000360 82 da c7 bd 46 7e c9 bd e7 f4 d6 bd 32 e6 9a bd
       -0.09758474 -0.09838538 -0.1049593 -0.075634375
000370 77 7b 2a 3d 65 ce c4 bd b6 46 b8 bc 2c 28 76 3d
       0.04162165 -0.09609679 -0.022494655 0.060096905
000380 76 de c2 bc 78 f8 9f 3d ea 48 12 bd ea 21 4f 3d
       -0.023787718 0.078110635 -0.035714068 0.050569452
000390 57 64 c9 3d 29 b5 9c 3d e4 8f 22 bd 7c 7d bb 3b
       0.098335914 0.07651741 -0.039688006 0.005721746
0003a0 87 63 44 3d 28 ac 06 bd 57 a3 12 3d 07 a8 8d 3c
       0.04794648 -0.032879025 0.035800304 0.017292036
0003b0 be a0 84 3c c0 f6 9d bd 16 60 5f 3d 13 b6 93 3d
       0.01618993 -0.077130795 0.054534994 0.07212462
0003c0 42 c6 f8 3c bb 07 d6 3c 39 e9 20 3e 69 97 fe bb
       0.030367974 0.026126733 0.15713967 -0.0077695143
0003d0 d3 1e 5f 3c 3e cc a7 3d af cf c4 3d 77 77 4a bd
       0.013618189 0.08193253 0.09609925 -0.049430337
0003e0 1a 46 38 bb b9 9a d0 bd bb 73 31 be b5 38 2f bd
       -0.0028117956 -0.10185761 -0.17329304 -0.04277869
0003f0 3b 66 63 bd 87 a8 90 bc cd 67 bd 3d af a4 01 bd
       -0.055517416 -0.017658485 0.09248314 -0.031651195

lstm.bias_ih_l1 f4 [512]
000000 99 cb 78 3d 68 8e 0b 3d 12 99 e3 3c 08 0b 8c bc
       0.06074104 0.034071356 0.02778295 -0.017095104
000010 9e 98 ab bd 3b e5 cc 3c 05 48 94 bc a1 35 72 3d
       -0.08378719 0.02501165 -0.018100748 0.059133176
000020 38 a4 83 3d 46 42 21 bd 92 28 77 bd db 69 83 bd
       0.064278066 -0.039369844 -0.060341425 -0.06416675
000030 de 7c a0 3d 3a f4 8c 3c 5a 53 61 bd 5b 37 83 3d
       0.078363165 0.0172063 -0.05501113 0.064070426
000040 4d 4d f9 bb d6 86 54 bd 66 9a 89 3d 2a 51 d0 3c
       -0.007608092 -0.051886402 0.06718902 0.025429327
000050 08 65 0b 3b 8b 9c c7 3d ac 35 8c bd 01 90 84 3d
       0.0021269936 0.09746655 -0.068461746 0.06472779
000060 4d f4 5f 3d 0e 53 5f bd 41 61 41 bd fa 16 48 bb
       0.054676343 -0.054522566 -0.04721189 -0.0030531273
000070 73 2d c3 3d 42 2f 0e 3d 3d 16 3d 3d 83 93 cd 3d
       0.09530153 0.034713037 0.046163786 0.10037901
000080 43 d0 ba 3b ef fd 2d 3d f0 7b 4f 3b 98 70 c2 bd
       0.0057010963 0.042478498 0.0031659566 -0.09494132
000090 27 9b 67 bd a2 ae 92 bd 3f a1 af bd 49 35 33 bc
       -0.05654445 -0.07162215 -0.08575677 -0.010937997
0000a0 aa ed c5 bd 2e 27 26 3d fd 1d 71 3c 86 e4 99 3d
       -0.096644714 0.04056471 0.014716622 0.075142905
0000b0 4c b5 47 3d ed 96 d1 3c 35 6d 86 bd e7 5c 93 3d
       0.048756883 0.025584662 -0.06563798 0.07195454
0000c0 7b b5 7a 3d a9 a0 a4 3d 44 b1 ce bd c2 a0 24 bd
       0.06120823 0.08038456 -0.100924045 -0.040192373
0000d0 4e 34 62 bd 21 19 a7 bd 5f c0 d6 3d 59 c4 00 3d
       -0.055225663 -0.0815909 0.104859106 0.03143725
0000e0 2e 28 cd bb 05 6a 83 3d 09 79 ba bc 42 eb 8b bd
       -0.0062608933 0.06416706 -0.022762792 -0.06831981
0000f0 86 1b 7e 3d 81 87 48 bd 03 19 1b bc 96 5e 49 3d
       0.062037967 -0.04895735 -0.0094664125 0.04916247
000100 7b e1 6c 3d 1b d4 90 bd a2 63 9b ba 37 d8 45 bd
       0.057832222 -0.07071706 -0.0011855254 -0.0483019
000110 d5 ce 1c bd d0 84 56 3d a7 11 da 3d ec 4d 91 bc
       -0.038283188 0.052372754 0.10647898 -0.017737351
000120 83 19 00 3c 50 5c b8 3d ee 3c 1c 3d 8a ce a5 bd
       0.0078185825 0.09001982 0.038144045 -0.08096035
000130 1d 76 b4 bc 13 c1 a1 3d 79 54 7b bd eb a0 8f 3d
       -0.022028977 0.07898154 -0.061359856 0.070131145
000140 54 7c 1e bd e6 54 20 bb 37 4b b8 bc 1e a4 69 bc
       -0.038692787 -0.0024464666 -0.022496803 -0.01426032
000150 b6 85 bf 3d f5 d1 9c 3d 13 0a 5f 3c f2 27 d1 bd
       0.09351675 0.076572336 0.013613242 -0.10212697
000160 96 ce b5 bd af bc a9 bd 4d 0b 5b 3d 75 37 da 3d
       -0.08877294 -0.08287942 0.053477574 0.10655109
000170 67 70 a3 3d 00 b3 82 bc 15 3b 81 3d 2d a6 ba bc
       0.079804234 -0.015954494 0.06310097 -0.022784317
000180 7a 1e 98 3c 42 37 8a 3d 31 e9 18 bd f7 b9 dc bc
       0.01856922 0.06748821 -0.037331764 -0.026944144
000190 bc cd 25 bd 37 db 6a bd 73 28 e4 3c 62 dd c2 3d
       -0.040479407 -0.057337966 0.027851319 0.09514882
0001a0 cd 8b d9 bd 44 43 c5 bd d8 4b 48 3d 21 03 82 bd
       -0.10622368 -0.096319705 0.048900455 -0.06348253
0001b0 34 2a ad bd ff 2a 73 bd 20 b3 4c bc 6d 4d 8f 3d
       -0.08455315 -0.059367176 -0.012493879 0.0699719
0001c0 e7 89 48 3c a7 f3 e0 bd a5 9a 63 3d bc c4 dd 3c
       0.01223991 -0.10983973 0.055567402 0.02707135
0001d0 1b 47 c8 bd 22 97 e7 bc 47 a3 2e 3d 17 06 86 3d
       -0.09779187 -0.028270308 0.042636182 0.0654413
0001e0 2a b4 1e bd e8 92 a9 3c 2c ca 05 3d 3d ab 08 bb
       -0.038746037 0.020699933 0.03266351 -0.002085402
0001f0 2b 9a 40 bd f9 12 5e bd ad 5f ae 3c 39 68 84 bd
       -0.047022026 -0.054217312 0.021285856 -0.064651914
000200 42 0e 1c 3d 08 9f b1 bd 3a 96 55 3d d0 f3 83 b9
       0.038099535 -0.08672911 0.05214522 -0.00025167922
000210 35 c9 86 3d 13 f3 82 bd 9a ab 41 3d b5 d3 a3 3b
       0.06581346 -0.06394019 0.047282793 0.0049996027
000220 a8 13 77 3d 81 32 c6 3b 68 c7 8d 3d 1c 1a 1c 3d
       0.06032148 0.006048501 0.06922799 0.038110837
000230 dc ae c9 3d 41 d8 22 3c fe 89 25 bc 52 87 86 3d
       0.09847805 0.009939254 -0.010103701 0.06568779
000240 64 05 6c 3b 9c c1 c9 bc fb 1a df 3c ba 4a 91 3d
       0.0036013955 -0.024628453 0.027234545 0.07094331
000250 63 58 34 bc 6c 86 89 bd de d7 12 bd 2c 11 4e 3d
       -0.011007401 -0.06715092 -0.0358504 0.050309345
000260 17 cf 08 bd e4 1d 4a bd e5 8e e9 bd 47 ce 9b bc
       -0.03340062 -0.049344912 -0.11404208 -0.01901926
000270 ae 9f 8a 3d 0e eb 57 3d b2 15 fb bc eb 00 cc 3d
       0.06768738 0.0527144 -0.030649994 0.099611126
000280 13 ca 9b 3d d6 b9 81 3d 23 49 d3 3c c3 6a 81 3d
       0.07606902 0.063342735 0.02579171 0.06319191
000290 f2 5d 72 bd 63 6f e3 3c 7e 77 18 bd 88 e1 2a bd
       -0.059171624 0.027763074 -0.03722333 -0.04171899
0002a0 1b 76 bf bd 2d 45 c4 3d 6d 8e 4c bd 43 98 c3 bc
       -0.09348699 0.09583507 -0.049940515 -0.023876315
0002b0 8d a8 2d bb 20 fc 9b bd 1b 68 20 bd 86 78 40 3d
       -0.002649817 -0.076164484 -0.039161783 0.04698994
0002c0 e1 b2 ab 3d ba 0d fd bb 15 78 46 3d ab 1c b3 3c
       0.08383728 -0.0077225836 0.048454363 0.021864256
0002d0 87 58 b4 3d 9b a7 45 3b 68 bb b1 3d 6d a3 0b bd
       0.08805948 0.0030159715 0.08678323 -0.0340914
0002e0 ff b1 1d bd e9 8e 2d 3d 75 eb c0 bd 80 42 09 3d
       -0.03849983 0.042372618 -0.0941991 0.033510685
0002f0 80 a6 ad bc 3b 3e 9e 3d 61 2a 83 3d 90 aa 3e 3c
       -0.021197557 0.07726713 0.064045675 0.011637345
000300 62 51 ab 3d 09 56 5c bd fc aa 88 bc 3a 20 15 bd
       0.08365132 -0.053792987 -0.016683094 -0.036407687
000310 e8 e6 d1 3c 93 90 1a bd c0 86 d8 bb 89 73 19 3d
       0.0256228 -0.037735533 -0.0066078603 0.0374637
000320 91 16 95 bc 67 1d 80 3d 12 ba e5 bc bd 62 74 bd
       -0.018199237 0.06255608 -0.028042827 -0.059664477
000330 f2 ae 99 bc b2 54 72 3c 94 1e 95 3d d7 71 4f bd
       -0.018760178 0.014790701 0.07281223 -0.050645676
000340 de 61 d0 3d 07 94 92 3d 91 c6 16 bd 5f 7d 4e bd
       0.10174917 0.0715714 -0.03681046 -0.050412532
000350 47 c9 af 3d f4 84 b2 3d 00 16 a5 bd 29 67 00 3d
       0.085833125 0.08716765 -0.08060837 0.03134838
000360 36 c6 b4 3c 96 1b bc 3b df c1 64 3d a7 19 ee bc
       0.02206717 0.005740593 0.055848952 -0.029064966
000370 04 88 8a ba e6 8c 1b bd 67 b4 46 bd c1 5e 02 3d
       -0.00105691 -0.037976168 -0.04851189 0.031828646
000380 49 d8 8f 3c 00 18 a7 3d 73 83 88 3d e0 b4 09 3c
       0.017559187 0.081588745 0.06665697 0.00840494
000390 d0 7b f1 3b e5 70 27 bd aa c6 34 bd 78 ef a5 3d
       0.007369496 -0.04087915 -0.044134773 0.08102316
0003a0 08 ac 01 bc eb 01 09 3d f3 e6 ae bc c2 be bc 3c
       -0.007914551 0.033449095 -0.02135036 0.02304018
0003b0 4b a7 c8 b9 b4 47 9f bc ff 93 28 3d 03 df e0 3c
       -0.00038271616 -0.01944337 0.041156765 0.02745009
0003c0 25 da c0 3c 26 52 df bd a7 70 6b 3d eb 97 dc bc
       0.02354152 -0.109043404 0.05748048 -0.026927909
0003d0 d4 4e 79 3d 08 7a f9 bc 5e cf c4 3b 46 d6 76 bd
       0.060866192 -0.030453697 0.0060061654 -0.06026294
0003e0 ed e8 56 bd 00 d6 81 3d f2 7f 71 3d 80 20 a2 bd
       -0.05246823 0.063396454 0.05895991 -0.07916355
0003f0 42 b4 01 be 86 01 e0 bc da 43 04 bc 2d eb 6d 3d
       -0.12666419 -0.027344476 -0.008072818 0.05808561
